models/tenson.pt (torch, 5640 bytes, 4 tensors)

net.0.weight f4 [32, 25]
000000 9b 35 b1 3d 2b db 1e 3e a5 b9 2f 3e 8e 89 f6 3d
       0.086528026 0.15513293 0.17160662 0.12037955
000010 22 5f d2 bd df fa 0e be 17 c4 19 be 33 40 7e 3d
       -0.102720514 -0.13962887 -0.15016209 0.062072944
000020 e0 2b f7 bd 4d 1b 0e 3e f9 34 4c 3d 05 7a 23 3d
       -0.12068915 0.13877602 0.049855206 0.03991129
000030 4d a0 a6 bd 06 04 35 3e f0 a4 35 3e 40 80 3a 3e
       -0.08136044 0.17677316 0.177387 0.18212986
000040 5d 80 09 3e a2 af b6 3c 39 d8 8a 3d 4e c3 06 bd
       0.13427873 0.022300545 0.067795224 -0.0329011
000050 3e 5b 2d 3e 04 ad 05 be cd 5e 92 3d be 68 ed 3d
       0.16929337 -0.13054281 0.07146988 0.115922436
000060 f5 57 a5 bd ff d6 0d 3e 15 09 7b bd ba 20 04 3e
       -0.08073417 0.13851546 -0.06128796 0.12903109
000070 6f c5 dd 3b 86 3b b3 3d fc 04 8a bd 2e 77 91 3a
       0.0067679207 0.087515876 -0.06739232 0.001109814
000080 cf 9d ac 3d 1b e2 b7 3d 07 bc a6 bd 14 90 4e 3d
       0.08428537 0.08978673 -0.08141332 0.050430372
000090 d1 38 4a 3e 9a 1b 4a 3e 59 37 fb 3d 07 a0 64 3d
       0.19748236 0.19737092 0.12266416 0.055816676
0000a0 b7 29 9a 3b 1d 8b 42 3e 80 62 2c 3d f2 5f 6a 3d
       0.00470468 0.1899838 0.042086124 0.057220407
0000b0 d5 e6 d4 bd f6 48 3d bc b0 14 26 3e c6 2d 21 be
       -0.1039559 -0.01155304 0.16218829 -0.15740117
0000c0 c5 37 9a bd 64 39 3d 3c 48 09 9f bd f5 f3 13 3e
       -0.075301684 0.0115493275 -0.07765442 0.14448531
0000d0 b4 28 cd 3c 7f 66 90 3d 49 ae 4a bd 3d f0 41 3e
       0.025043823 0.070507996 -0.049482618 0.189393
0000e0 a4 82 44 be 93 61 7d bd 6a 92 f4 bd 44 ba bf 3d
       -0.1919046 -0.061860632 -0.11941989 0.09361699
0000f0 ff 63 bd bd f6 e5 d0 bd 75 26 3d be 33 d3 f7 3d
       -0.09247588 -0.102001116 -0.18471701 0.1210083
000100 8a 46 44 3e b3 81 43 3e 76 ab c4 3d 4e b2 d8 bd
       0.19167534 0.19092445 0.09603016 -0.10580884
000110 72 23 1b 3e 05 28 3e 3e ad ac 3b 3c 2b d8 49 3c
       0.1515024 0.18569954 0.011454743 0.012319605
000120 d0 21 20 3e 38 59 e6 bc 32 ce 8d 3d 76 7b 55 bc
       0.15637898 -0.028118715 0.06924094 -0.013029924
000130 ce 77 b4 bc 18 85 10 3e d4 2d c9 3d 23 ec 41 bd
       -0.022029784 0.14113271 0.09823194 -0.04734434
000140 5d c7 72 bd 95 c2 7c bd ae 52 02 be cf 88 5a bd
       -0.05927216 -0.061709005 -0.12726852 -0.053353127
000150 f1 5b 2c be b6 fd fa 3d 66 36 cb bd 45 69 0f 3e
       -0.16831948 0.12255423 -0.09922485 0.14005001
000160 b0 a3 03 3e c9 4f 17 be ac 9c b9 3d 23 7c 1c 3e
       0.1285541 -0.1477653 0.09063086 0.1528173
000170 91 59 14 3e 43 55 0a be d5 b4 6a 3b 6c c7 16 bc
       0.14487292 -0.13509087 0.003581335 -0.009202819
000180 cf f6 96 bd d8 a0 6b 3d a2 12 df bd 92 28 6d bd
       -0.07371294 0.05752644 -0.10892226 -0.05790002
000190 66 97 2e 3e cd 16 bb 3d 36 0d ff 3b b4 a7 14 3e
       0.17049941 0.09135208 0.0077835573 0.14517099
0001a0 59 80 b4 3d de d4 13 3e 13 15 3d be 1b 6b 1c 3e
       0.08813543 0.14436671 -0.1846507 0.15275232
0001b0 11 d8 0c 3e 85 20 b6 bd 79 de 83 bd 8c 82 c7 bd
       0.13754298 -0.08892921 -0.06438918 -0.09741697
0001c0 b3 63 b5 3d 80 01 4c be 27 37 4c 3e 5c bd 24 3e
       0.08856907 -0.19922447 0.19942914 0.1608786
0001d0 cc c5 59 bd bd aa 4e bc cc e5 1c 3e a0 26 10 3e
       -0.05316715 -0.012613949 0.15322036 0.14077234
0001e0 cb b9 02 be f5 14 0a 3e 0b 01 29 be ca 47 3c 3e
       -0.12766187 0.13484557 -0.16504304 0.1838676
0001f0 19 5c 6f 3d 9d 81 5c 3d 5b 4a 2a 3e 4a 17 04 be
       0.05843744 0.053834546 0.16629927 -0.12899509
000200 c6 ae 4e bc 75 86 26 3e 5f 95 0b 3e de 8b 05 3e
       -0.012614911 0.16262229 0.136312 0.13041636
000210 ae 08 fb 3c aa 17 b5 3d 26 0b 0c 3e 58 1d 4c bc
       0.030643787 0.08842404 0.13676128 -0.012458168
000220 c8 a4 d4 bc c9 1a ea 3d 78 f3 22 be 90 70 0c be
       -0.02595748 0.1143089 -0.15913188 -0.13714814
000230 ce 98 da 3c 05 bd f0 3d b9 cf b2 bd 57 2a 17 3e
       0.026684191 0.117548026 -0.08731026 0.14762245
000240 7a b9 f2 3d d9 28 0f be 33 40 08 3e 79 1e b9 bc
       0.11851783 -0.13980426 0.1330574 -0.022597538
000250 70 b9 68 3d c3 87 e4 3d 4d 1c 25 be 84 24 a0 bd
       0.056817472 0.11158707 -0.16124077 -0.07819465
000260 5f 1a 01 bd cc a8 4f 3d dd d2 87 bd b1 07 4e bd
       -0.03151929 0.050698087 -0.06632016 -0.050300304
000270 d9 54 18 bd 06 29 8d 3d 68 48 a5 bc ee 39 68 bc
       -0.037190292 0.0689259 -0.020176128 -0.014173968
000280 e7 67 17 3e 8d 9b 40 bd d4 e2 83 3d f0 7d 2c 3e
       0.1478573 -0.047023345 0.064397484 0.16844916
000290 b5 48 e2 3c c8 fa b6 3d 26 34 54 be 59 28 12 3d
       0.02762256 0.089345515 -0.20723018 0.03568301
0002a0 6f f4 27 be 40 5a a6 3d 8c ad 31 3e 27 9a 35 be
       -0.16401838 0.081226826 0.17351359 -0.17734586
0002b0 be c5 31 3e 8d 9a 9f 3c ea 21 0d 3d 85 82 1b 3e
       0.17360589 0.019482875 0.03445617 0.15186508
0002c0 ca e1 d6 bd 0d 82 49 be d9 9f 32 be 97 de 36 bd
       -0.104922846 -0.19678517 -0.1744379 -0.044645872
0002d0 65 1b 57 3c db 0f 42 3e ad 64 ac 3c 78 ca b2 3b
       0.01312909 0.18951361 0.0210441 0.005456265
0002e0 37 00 11 3e 08 cc 11 3c 1d d6 12 3e 3a 16 22 3d
       0.14160238 0.0088987425 0.1433949 0.03957198
0002f0 87 f7 1c 3e 56 34 cf 3d 35 e8 d5 3d af 72 8c bc
       0.15328799 0.10117404 0.104446806 -0.01714453
000300 b0 d3 94 3d c7 38 b1 3d 3c d4 c7 3d 82 c0 9b 3d
       0.07266939 0.086534075 0.09757277 0.07605077
000310 bf d7 3e 3e 5a d8 d4 3c e8 58 6a bd a5 7f 14 3e
       0.18636988 0.02598207 -0.057213694 0.14501818
000320 ff 27 1c 3e 35 a5 16 be 90 f4 d2 3d fb 41 ba ba
       0.15249632 -0.14711459 0.10300553 -0.0014210338
000330 94 fa 25 3e a3 87 09 bd a3 2e 9a 3d 8d 65 06 3e
       0.16208869 -0.03357662 0.075284265 0.13124676
000340 1d d2 32 bd b8 8f f1 3d 4d 11 b4 bd 45 01 10 be
       -0.04365741 0.1179499 -0.08792362 -0.14062984
000350 18 3f fc 3d a4 f2 6b 3d 60 40 dc bd c7 90 49 3c
       0.12316722 0.057604447 -0.10754466 0.012302584
000360 87 2e b5 bd c7 f9 30 be 23 0a 9e 3c 74 cb 19 bc
       -0.08846765 -0.17282782 0.019291943 -0.009386886
000370 ce 7d 1f 3e a9 8e 39 3e b3 b4 b3 bd a6 99 9c 3d
       0.15575334 0.18120827 -0.087747 0.076464936
000380 5d 42 ce 3b 71 8e 23 be a2 8e e0 3d c5 bb 52 3d
       0.006294532 -0.15972306 0.10964705 0.051448602
000390 6a 18 ce bd db b1 e9 3d 16 35 e3 3c 0f 01 f2 bd
       -0.1006325 0.11410876 0.027735274 -0.11816608
0003a0 3e ac 10 3e 06 00 2e be 4d bc 20 3e 3e ea 7a 3c
       0.14128205 -0.16992196 0.15696831 0.015314637
0003b0 c4 98 61 3d 05 d2 38 3e d5 a4 0b be 1c b0 20 bd
       0.05507733 0.18048866 -0.13637097 -0.03923045
0003c0 de 82 36 3e 13 18 b5 3d 33 8c 8e 3d 46 98 5d 3d
       0.1782336 0.088424824 0.06960335 0.054100297
0003d0 17 de 40 3d 40 a7 16 bd 86 51 1b be d1 d5 13 be
       0.0470868 -0.036780596 -0.15167817 -0.14437033
0003e0 d8 c7 a5 ba 80 df 45 3e 50 61 e2 3b f3 13 24 be
       -0.0012648059 0.1932354 0.006908573 -0.16023235
0003f0 87 0b 18 be 75 c2 aa bd d2 6f e9 bd 0e ce 01 3e
       -0.14848147 -0.08337871 -0.11398281 0.1267626

net.0.bias f4 [32]
000000 50 44 2a be d4 c1 a3 3c 33 f6 c0 3d 0d 5c b3 bd
       -0.16627622 0.019989885 0.09421959 -0.08757792
000010 4a 86 17 be cf cd 0e 3e 33 4c 40 be 07 38 13 be
       -0.14797321 0.13945697 -0.18779068 -0.14376841
000020 99 28 59 bd 97 b3 0d be ab 1b c3 bc 33 79 b4 bd
       -0.053017233 -0.1383804 -0.023816904 -0.088121794
000030 3a 2c 9a bd 05 d8 49 3e 68 0e d3 bd 9d 3a ad bd
       -0.07527967 0.19711311 -0.10305482 -0.08458445
000040 c3 82 1e 3e ff 44 8e bd af 70 88 3d 66 8d 07 bd
       0.15479569 -0.06946754 0.06662118 -0.033093832
000050 da 36 ed 3d 3a 7b ac bd a6 f5 8f 3c 91 bb 0b 3d
       0.11582728 -0.08421941 0.017573189 0.034114424
000060 d9 09 da bd 33 b1 9f bc 5c 9a 10 3d 47 23 ce bd
       -0.106464095 -0.019493675 0.03530346 -0.10065322
000070 ec 42 46 3e 13 66 cb bc 67 bd 05 be 25 61 0d 3d
       0.19361466 -0.024828946 -0.13060533 0.034516472

net.3.weight f4 [3, 32]
000000 05 9f ce bd 1d 71 20 be 57 c0 e3 3d e8 d0 1f bd
       -0.10088924 -0.1566815 0.1112067 -0.039017588
000010 3e 33 06 be a8 95 12 3e 92 a6 eb bd 87 02 2d 3e
       -0.13105485 0.14314902 -0.1150638 0.16895495
000020 f6 55 f0 bd c9 b7 66 bc 56 e4 ff 3d 39 d3 39 3e
       -0.11735146 -0.014081904 0.124947235 0.18146981
000030 03 8e c4 3c 5b de f2 bc df 01 89 bd bb f6 5f 3d
       0.023993498 -0.029647043 -0.0668981 0.05467866
000040 fb 17 20 bc 0a 15 7f bd 42 4a 30 bd ba 0d 87 3b
       -0.009771342 -0.062275924 -0.043039568 0.0041215094
000050 7e d0 cf 3c a2 47 b2 bc aa 75 87 bd 51 59 7d 3d
       0.025367972 -0.021762673 -0.066142395 0.061852757
000060 91 66 34 3d 23 a4 ce 3d ba b2 8e 3d 51 c9 af 3b
       0.044043127 0.100899 0.06967683 0.005364575
000070 3e 24 18 be c8 a0 8a bd d1 c2 29 3e 00 7c ed bd
       -0.14857575 -0.06768948 0.16578223 -0.11595917
000080 9a e1 29 be 19 6f 2e 3e f9 15 27 be cb 2f 74 bd
       -0.16589966 0.17034568 -0.16316976 -0.05961589
000090 62 eb 8f 3d 72 29 d1 bd e5 c9 96 bd 96 57 24 be
       0.070273176 -0.10212983 -0.07362727 -0.16049036
0000a0 59 7e f4 bd 85 4f 56 bd 5e bd eb bc fb c1 2a be
       -0.119381614 -0.05232193 -0.02877682 -0.1667556
0000b0 1a 31 6b bd 79 d0 02 3e ce fb 04 be ee 20 20 3e
       -0.057419874 0.12774839 -0.12986681 0.15637562
0000c0 67 5f 02 be 8b a7 b9 3d 4d 49 37 3c 97 7e a4 bd
       -0.12731706 0.090651594 0.01118691 -0.080319576
0000d0 84 23 c6 3d 46 38 38 3e 84 f1 c0 3c d8 71 30 3e
       0.09674743 0.17990217 0.023552664 0.17230928
0000e0 03 58 c2 bb 2a 22 21 be 9f 43 18 3e dd a4 25 3e
       -0.005930902 -0.15735689 0.14869545 0.16176172
0000f0 fe ff a2 3c 27 8a 19 be 20 39 0b be f7 dd 0b bd
       0.019897457 -0.14994107 -0.1359601 -0.03414723
000100 e2 36 1c be a5 54 b2 bd fa 46 1d 3e 5b d0 08 3e
       -0.15255311 -0.08707551 0.15359107 0.13360731
000110 3a 74 f8 bd a6 6e 7d 3c 1b 8b f2 bd 38 f5 94 bd
       -0.121315435 0.015468275 -0.118429385 -0.07273334
000120 28 0f 00 be 6d 82 12 3e 9a 35 c3 3d 41 8f 9a bd
       -0.12505782 0.14307566 0.09531708 -0.07546855
000130 4a 97 60 bd 81 ce 45 3d c9 ff 94 bd c9 6b 99 bc
       -0.05483178 0.04829264 -0.0727535 -0.018728154
000140 c7 40 da 3c 42 0f 30 3e 0c b6 bc 3d ed a7 48 bc
       0.026642216 0.1719332 0.0921441 -0.012247068
000150 c0 80 26 be 13 ad 17 be 04 cc c6 3d 41 fa 0e 3e
       -0.16260052 -0.14812116 0.09706882 0.13962652
000160 de 0f b3 3d 8b ec 91 3d 28 6f 6c 3d 86 a4 ba bd
       0.08743261 0.07125195 0.057723194 -0.091134116
000170 46 ba 64 3d 8c 9a 9e 3b df 45 89 bd 80 cd 19 3e
       0.055841707 0.0048402008 -0.0670278 0.15019798

net.3.bias f4 [3]
000000 3a 54 64 3c 8c d1 e5 bd 32 60 72 3d
       0.013936097 -0.112216085 0.05917377
