models/tensor.pt (torch, 62126 bytes, 22 tensors)

input_norm.weight f4 [19]
0.92290217 0.950951 0.93785125 1.1051228 0.9704801 1.0625856 1.0051839 1.0157264
1.0674064 1.0337025 0.9440684 0.9645372 1.0278182 1.0253633 1.0231693 0.9214384
1.0076936 0.9915484 0.95055985
00000000: 5143 6c3f 8671 733f 0517 703f aa74 8d3f
00000010: 6271 783f ce02 883f dea9 803f 5303 823f
00000020: c6a0 883f 5d50 843f 77ae 713f e9eb 763f
00000030: 8c8f 833f 1b3f 833f 36f7 823f 63e3 6b3f
00000040: 1bfc 803f 1ed6 7d3f e457 733f

input_norm.bias f4 [19]
-5.8858e-05 9.283243e-05 -4.216893e-05 -1.6594458e-05 -7.263399e-05 7.30202e-05 -6.718638e-05 8.515975e-05
-3.4729754e-05 -1.7484392e-05 5.6130928e-05 -2.8671686e-05 6.109311e-05 -5.531415e-06 6.100926e-05 4.1952273e-05
5.916245e-07 4.8413644e-05 -2.2493454e-05
00000000: 4cde 76b8 08af c238 8bde 30b8 5434 8bb7
00000010: 1453 98b8 6c22 9938 6ae6 8cb8 cb97 b238
00000020: caaa 11b8 72ab 92b7 206e 6b38 fa83 f0b7
00000030: 1d1f 8038 7e9a b9b6 32e4 7f38 e9f5 2f38
00000040: 20d0 1e35 c10f 4b38 53b0 bcb7

fc1.weight f4 [128, 19]
-0.1025219 0.041179556 -0.096563 -0.037744783 0.17329566 0.09595968 -0.11211436 -0.21568048
-0.06579266 0.1201007 -0.08691507 0.0024064854 -0.2294112 0.02509473 0.19994833 0.09502629
-0.01908124 -0.21325591 -0.14674684 0.1573104 -0.11406892 -0.029493885 -0.08585532 -0.20532261
0.25327894 0.06393204 0.16959523 -0.16750559 -0.06483606 -0.16178432 -0.18056214 0.012385215
-0.12970828 -0.10815904 0.039914664 -0.21661356 0.15999842 0.06982571 -0.015759706 -0.14225435
-0.1369229 0.16817412 -0.006842149 0.29531586 -0.06940001 0.2037444 0.113346204 0.09223751
0.10312699 0.10853121 0.07128394 -0.1585624 -0.26652658 -0.030402761 -0.013223839 -0.1735696
-0.18087482 -0.06921138 0.14059092 0.099393345 -0.24507481 -0.076123446 -0.20412023 -0.054447148
-0.25711903 -0.10554017 -0.09464549 0.12901288 0.046824668 0.21576393 0.23937047 0.15677693
0.10382816 -0.06291172 -0.022370914 0.1340428 -0.1439669 -0.20386194 0.014318019 -0.18286328
-0.14793122 0.048056442 0.11567364 0.022108134 -0.10341235 -0.10553051 0.06440681 -0.1471657
-0.06869428 0.20584044 -0.005581088 -0.004691232 0.08781183 -0.10525313 0.22189018 0.17001447
-0.13481331 -0.12963794 0.24991813 -0.0018201856 0.1538052 0.07120678 0.054678 0.059391525
0.09409455 0.04953789 -0.13150243 -0.15810315 0.011506933 0.1590613 0.049206275 0.029697457
0.03863321 -0.09637463 0.088570915 0.1507739 -0.27680382 -0.12461665 -0.16816999 0.15234038
-0.188072 -0.10093199 -0.012084183 -0.014676442 0.0076607196 -0.15645319 0.17973217 -0.12412438
-0.027773649 0.12109773 -0.19146529 -0.12547046 -0.17009245 0.09403624 -0.2347484 -0.14712572
-0.152411 0.16191632 0.17428476 0.095823035 0.02734361 -0.0063731056 0.07804319 -0.07073058
-0.22539751 0.0022464893 0.088986576 0.05607688 -0.21237923 0.011344946 -0.088089794 0.12011464
-0.14911436 0.12664123 0.08214042 0.03156255 0.0656037 0.10574756 -0.19496596 0.027876714
-0.16787761 0.2152774 -0.16204149 0.033854354 -0.17938477 -0.071119666 -0.15335777 0.08555439
-0.042981956 0.012828135 0.22888255 0.021401186 -0.0754506 -0.031815253 -0.0039278935 0.12251466
-0.10915105 0.021443842 -0.0028528306 0.021409832 -0.11867545 0.2474102 -0.050843403 -0.17096442
-0.048840202 -0.077158764 0.16138312 0.16560966 0.028136268 0.22803046 -0.10449217 0.15742962
0.24635956 -0.20762274 0.22205696 0.083552115 0.027332459 -0.16952525 0.15086158 -0.1020644
0.056020148 0.13418536 -0.05023422 0.17291914 -0.12877503 0.13572882 -0.09629916 0.22334449
0.17616281 0.19054292 0.030333433 -0.11775267 0.04629912 0.18858531 0.14911161 0.06231407
-0.11719513 0.03675894 -0.094473004 0.083390534 0.03771543 -0.12260938 -0.028556475 -0.085582376
-0.1972495 0.09741431 0.05757035 0.0032316702 -0.053456478 0.083766334 0.100122675 -0.2218882
0.0057736346 -0.21872282 -0.015101378 0.083884545 0.2526269 0.21991716 -0.19477893 -0.1275656
0.0713406 0.10645963 0.14329638 -0.12789503 0.10400768 -0.04987847 -0.0197908 -0.2058631
0.20509684 -0.016289026 0.19932015 -0.13716726 -0.014881608 -0.07715633 -0.08068795 0.12755072
00000000: 00f7 d1bd e5ab 283d d2c2 c5bd 469a 1abd
00000010: 6b74 313e 8286 c43d 379c e5bd 58db 5cbe
00000020: 4dbe 86bd 5bf7 f53d 8700 b2bd 20b6 1d3b
00000030: c5ea 6abe 7793 cd3c 41bf 4c3e 259d c23d
00000040: 4350 9cbc c25f 5abe ce44 16be fa15 213e
00000050: f79c e9bd 299d f1bc ead4 afbd 1740 52be
00000060: c7ad 813e cdee 823d 5faa 2d3e 9686 2bbe
00000070: c5c8 84bd caaa 25be 48e5 38be 5beb 4a3c
00000080: 3fd2 04be 7d82 ddbd 8f7d 233d f2cf 5dbe
00000090: a0d6 233e c800 8f3d 801a 81bc 20ab 11be
000000a0: 8435 0cbe d635 2c3e 1b34 e0bb a433 973e
000000b0: 9821 8ebd 5fa2 503e 0e22 e83d 05e7 bc3d
000000c0: 3e34 d33d 9c45 de3d 50fd 913d 2f5e 22be
000000d0: 2c76 88be 360f f9bc cda8 58bc 3bbc 31be
000000e0: 4037 39be b2be 8dbd 11f7 0f3e bd8e cb3d
000000f0: e4f4 7abe 9ce6 9bbd e504 51be f903 5fbd
00000100: 1ba5 83be 7225 d8bd 7fd5 c1bd f41b 043e
00000110: 39cb 3f3d 38f1 5c3e 881d 753e 228a 203e
00000120: dca3 d43d dcd7 80bd 3543 b7bc 8442 093e
00000130: 0f6c 13be 2fc1 50be 2096 6a3c 8340 3bbe
00000140: 487b 17be d5d6 443d 4de6 ec3d 1e1c b53c
00000150: dbc9 d3bd 6120 d8bd b8e7 833d 9bb2 16be
00000160: 96af 8cbd d6c7 523e 8fe1 b6bb e8b8 99bb
00000170: b0d6 b33d f48e d7bd 2e37 633e 4618 2e3e
00000180: 800c 0abe cfbf 04be 8aea 7f3e 4b93 eeba
00000190: 1c7f 1d3e dcd4 913d 0af6 5f3d 8744 733d
000001a0: a5b4 c03d 3ee8 4a3d 93a8 06be cbe5 21be
000001b0: 9387 3c3c f7e0 223e 858c 493d 1548 f33c
000001c0: db3d 1e3d 1060 c5bd ab64 b53d 7964 1a3e
000001d0: 3bb9 8dbe 0437 ffbd c134 2cbe 1eff 1b3e
000001e0: f295 40be 6eb5 cebd bdfc 45bc 7675 70bc
000001f0: c606 fb3b 4435 20be b60b 383e ec34 febd
00000200: 9085 e3bc 1602 f83d 7a0f 44be 547b 00be
00000210: b72c 2ebe 1296 c03d e261 70be 20a8 16be
00000220: a111 1cbe 64cd 253e b477 323e de3e c43d
00000230: b5ff df3c 7cd5 d0bb 1cd5 9f3d 32db 90bd
00000240: 9bce 66be d639 133b 983e b63d dfb0 653d
00000250: f179 59be 27e0 393c 6c68 b4bd aafe f53d
00000260: 6fb1 18be 3dae 013e 3d39 a83d bc47 013d
00000270: 3c5b 863d 2d92 d83d 28a5 47be b55d e43c
00000280: 1ce8 2bbe ae71 5c3e 34ee 25be ddaa 0a3d
00000290: a4b0 37be 30a7 91bd d209 1dbe 2437 af3d
000002a0: d90d 30bd 192d 523c 3060 6a3e 8a51 af3c
000002b0: d885 9abd b650 02bd 8fb5 80bb f7e8 fa3d
000002c0: 968a dfbd ffaa af3c 8ef6 3abb ac63 af3c
000002d0: 1d0c f3bd 1959 7d3e 2c41 50bd 4c11 2fbe
000002e0: aa0c 48bd 6a05 9ebd 9e41 253e 9495 293e
000002f0: 087e e63c d180 693e feff d5bd 3b35 213e
00000300: ae45 7c3e 0e9b 54be e662 633e 5f1d ab3d
00000310: 52e8 df3c 0798 2dbe 757b 1a3e 2407 d1bd
00000320: 6275 653d e367 093e 66c2 4dbd b711 313e
00000330: 9add 03be 7ffc 0a3e 7e38 c5bd 6bb4 643e
00000340: 0664 343e af1d 433e d27d f83c 5028 f1bd
00000350: 25a4 3d3d 821c 413e b7b0 183e 0a3d 7f3d
00000360: 0004 f0bd 8b90 163d 107b c1bd a8c8 aa3d
00000370: 7f7b 1a3d a01a fbbd 45ef e9bc d045 afbd
00000380: c6fb 49be 2781 c73d e3ce 6b3d 6eca 533b
00000390: 2ef5 5abd af8d ab3d 1e0d cd3d a936 63be
000003a0: c230 bd3b e0f8 5fbe c56b 77bc a9cb ab3d
000003b0: 5058 813e f731 613e 2174 47be 8fa0 02be
000003c0: 051b 923d 8207 da3d 49bc 123e eaf6 02be
000003d0: fb01 d53d 5e4d 4cbd 5120 a2bc c7cd 52be
000003e0: e804 523e 9070 85bc 951a 4c3e 9375 0cbe
000003f0: fdd1 73bc 2304 9ebd b93f a5bd a89c 023e

fc1.bias f4 [128]
0.0030441969 0.00021434594 0.0019788952 0.0024096102 0.005293586 0.00049155165 0.018882988 0.001066368
0.0022608016 -0.00036623827 -0.00076694647 0.015603493 -0.005237965 -0.001011539 -0.0030985742 0.02972271
5.3553842e-05 0.0047229356 0.0012010791 -0.00031564184 -0.0042730207 -0.011734664 -0.038072124 -0.017066237
0.034759678 -0.004891904 -0.0054850825 -7.796843e-06 -0.0022925907 0.0013570298 0.038166717 0.0014329917
0.0056038727 -0.004898972 0.025900567 0.0049418947 0.014610317 -0.0001518951 -0.018425718 0.0053113974
-0.00076125655 -0.0046193576 -0.0013963801 -0.00024316383 -0.002392897 -0.005568313 -0.028163832 -0.0055996594
0.0023188556 -0.03600234 -0.004496014 -0.025769748 -0.001122941 -0.0049037393 0.03807318 0.0019641314
-0.042179916 0.0044057034 -0.018807685 0.0012007528 0.0019902019 0.00042002043 -0.0020806298 0.005125476
0.00043107607 -0.0020752763 0.0010292106 0.04714996 0.0026610722 -0.021179179 -0.0003871262 0.0024397287
0.0035848587 0.00059681427 -0.0052827285 0.003546394 -0.0021956975 -0.0025946845 -0.000839756 -0.0054624774
0.0008817329 0.042061344 -0.004238153 0.0011575273 0.0039442996 0.0024862261 -0.0054642987 -0.0071993405
-0.001647236 -0.0014300991 -0.00019912876 -0.0043732678 -0.0013953805 -0.0044315173 0.036326304 0.0104734665
0.038969688 -0.022827368 0.0024238313 0.016754404 -0.030809399 0.026965119 -0.00052959635 0.028865226
-0.017084658 0.0001650257 -0.0053761955 -2.060084e-05 -0.0055324594 0.0023047014 0.004671591 -0.0045480267
0.0024643235 -0.043970443 0.0024502052 -0.008823525 -0.0008870115 -0.00021636083 -0.0041390737 0.0007240856
0.0024342244 0.001341929 0.01706735 -0.0022996212 -0.003637324 -0.00012070098 0.0010617129 0.037715297
00000000: 2681 473b 0dc2 6039 5ab0 013b 8dea 1d3b
00000010: d175 ad3b 79db 003a 7fb0 9a3c 5fc5 8b3a
00000020: f529 143b ab03 c0b9 e80c 49ba cba5 7f3c
00000030: 3ca3 abbb 9e95 84ba 7311 4bbb 0a7d f33c
00000040: 009f 6038 dbc2 9a3b 876d 9d3a bb7c a5b9
00000050: b204 8cbb c042 40bc 84f1 1bbd 7ece 8bbc
00000060: 2a60 0e3d 444c a0bb 35bc b3bb 30cf 02b7
00000070: 4a3f 16bb 5dde b13a b454 1c3d 39d3 bb3a
00000080: b1a0 b73b 8e87 a0bb 6d2d d43c 9eef a13b
00000090: 1c60 6f3c 0846 1fb9 88f1 96bc 3b0b ae3b
000000a0: 108f 47ba fb5d 97bb be06 b7ba cbf9 7eb9
000000b0: 26d2 1cbb 6576 b6bb d6b7 e6bc 597d b7bb
000000c0: f1f7 173b 3177 13bd 4d53 93bb 141b d3bc
000000d0: a62f 93ba 8caf a0bb 9ff2 1b3d a8b8 003b
000000e0: d9c4 2cbd b85d 903b 9312 9abc 9462 9d3a
000000f0: 0c6e 023b 3036 dc39 2d5b 08bb 9cf3 a73b
00000100: 0d02 e239 5c01 08bb 94e6 863a 5120 413d
00000110: 6265 2e3b f57f adbc 33f7 cab9 dbe3 1f3b
00000120: f3ef 6a3b 8773 1c3a bd1a adbb 9e6a 683b
00000130: b1e5 0fbb 950b 2abb 1223 5cba 95fe b2bb
00000140: 1824 673a 8448 2c3d 34e0 8abb 2cb8 973a
00000150: 2f3f 813b f4ef 223b dc0d b3bb 72e8 ebbb
00000160: 11e8 d7ba 2a72 bbba 38cd 50b9 a14d 8fbb
00000170: 33e5 b6ba 4336 91bb e4ca 143d e798 2b3c
00000180: ae9e 1f3d 7600 bbbc 24d9 1e3b 8840 893c
00000190: fe63 fcbc f4e5 dc3c 9cd4 0aba c476 ec3c
000001a0: 20f5 8bbc c00a 2d39 cc2a b0bb f8cf acb7
000001b0: a249 b5bb 790a 173b 2514 993b 9d07 95bb
000001c0: 7d80 213b 5a1a 34bd 9f93 203b 8c90 10bc
000001d0: 5686 68ba ebde 62b9 11a1 87bb 90d0 3d3a
000001e0: 8287 1f3b aae3 af3a d4d0 8b3c 3eb5 16bb
000001f0: 2c60 6ebb d820 fdb8 2c29 8b3a 5b7b 1a3d

bn1.weight f4 [128]
0.95521235 0.99997985 0.9924324 1.0497267 1.0055296 1.0403581 1.0009373 0.94386995
0.97845966 1.0332937 0.9982666 0.9485478 0.9860857 1.0216249 1.0225432 1.0154629
0.9234385 1.008968 0.953574 0.93419194 1.0463222 0.938151 0.953029 0.99356127
1.0133469 1.0043502 0.99421525 0.9646709 0.9862311 0.9357823 0.9337097 0.9392426
1.0110414 1.0058004 0.9653984 0.97328764 0.9769417 0.99105585 0.9900675 0.98552716
0.9525996 0.9661455 1.0010233 1.0283203 0.9903565 0.9392488 0.9829474 1.004572
1.0083342 0.95403534 0.9899862 1.0316743 0.9801548 1.0166122 0.93994665 0.959262
0.93979806 0.9808065 0.94495606 0.97209656 1.0043417 1.0309451 0.94073135 0.986368
1.0523027 0.9819627 0.9259537 0.97742397 1.0226468 0.98952 0.9558974 1.0794169
0.95610154 0.9879585 0.9774148 1.0321541 1.0007408 0.9776287 0.9702444 1.0173808
0.9921203 1.0182363 0.97134423 1.0066377 0.92531234 0.947777 0.96234155 0.97851336
0.99296135 1.0248574 1.0581875 0.9781916 1.0498859 0.9300895 0.9906131 1.0226071
0.9717807 0.945109 0.9525342 0.959104 0.9522934 0.9986841 1.0029571 0.99117833
0.9117738 0.9676854 0.9546075 1.037242 0.99627167 1.0152844 0.9816273 0.9706525
0.9528488 0.96766585 0.9251285 1.0128784 1.0150877 0.9533645 1.0013539 0.98256177
0.9434463 1.027487 1.0126747 1.0163041 0.9357975 0.95714796 0.9815686 0.99722356
00000000: cc88 743f aefe 7f3f 0d10 7e3f 725d 863f
00000010: 32b5 803f 742a 853f b71e 803f 76a1 713f
00000020: 557c 7a3f f842 843f 668e 7f3f 07d4 723f
00000030: 1d70 7c3f 9bc4 823f b2e2 823f b0fa 813f
00000040: 7766 6c3f dd25 813f 6d1d 743f 3427 6f3f
00000050: e3ed 853f aa2a 703f b5f9 733f 085a 7e3f
00000060: 5ab5 813f 8c8e 803f e484 7e3f acf4 763f
00000070: a479 7c3f 6e8f 6f3f 9907 6f3f 3472 703f
00000080: ce69 813f 11be 803f 5924 773f 6129 793f
00000090: da18 7a3f d6b5 7d3f 1075 7d3f 824b 7c3f
000000a0: 91dd 733f 5055 773f 8821 803f 00a0 833f
000000b0: 0188 7d3f 9c72 703f 71a2 7b3f d195 803f
000000c0: 1811 813f a93b 743f bc6f 7d3f e70d 843f
000000d0: 6deb 7a3f 5920 823f 58a0 703f 3292 753f
000000e0: 9b96 703f 2316 7b3f a4e8 713f 52db 783f
000000f0: 458e 803f 02f6 833f c5d3 703f 9d82 7c3f
00000100: dbb1 863f e861 7b3f 4d0b 6d3f 7538 7a3f
00000110: 17e6 823f 2f51 7d3f b1b5 743f 552a 8a3f
00000120: 12c3 743f d9ea 7c3f db37 7a3f a01d 843f
00000130: 4618 803f e045 7a3f f061 783f 8939 823f
00000140: 99fb 7d3f 9155 823f 04aa 783f 81d9 803f
00000150: 45e1 6c3f 83a1 723f 045c 763f da7f 7a3f
00000160: b732 7e3f 872e 833f b072 873f c46a 7a3f
00000170: a962 863f 581a 6e3f d298 7d3f cae4 823f
00000180: 9fc6 783f aaf2 713f 48d9 733f d787 753f
00000190: 80c9 733f c3a9 7f3f e660 803f ddbd 7d3f
000001a0: 026a 693f 3bba 773f 2861 743f 59c4 843f
000001b0: a90b 7f3f d7f4 813f ed4b 7b3f af7c 783f
000001c0: e6ed 733f f3b8 773f 39d5 6c3f 00a6 813f
000001d0: 65ee 813f b20f 743f 5d2c 803f 2b89 7b3f
000001e0: b285 713f b284 833f 539f 813f 4116 823f
000001f0: 6d90 6f3f a607 753f 1448 7b3f 0b4a 7f3f

bn1.bias f4 [128]
-0.018826116 0.009752609 0.02095624 -0.0035246152 0.04111609 0.011741735 0.010071917 -0.050694942
0.02071229 -0.023816774 -0.08464654 -0.037663087 0.023715917 0.0031574045 -0.0484071 -0.008821106
-0.051887788 -0.038223285 -0.026367549 0.013282203 0.0035957166 -0.033834625 -0.011293494 -0.014782351
-0.00895236 -0.029416382 -0.01907556 -0.048182976 0.0049439133 -0.028616905 -0.028637014 -0.1091267
0.010138809 -0.0040634507 -0.058965564 -0.032985006 -0.028335959 0.0071352716 -0.030655256 -0.024853176
-0.07284311 -0.019894317 -0.00785506 -0.0012071406 0.021379579 -0.016211776 -0.049775753 0.012749624
0.0042250846 -0.08621236 -0.009852448 0.005326335 -0.049633045 0.042823393 -0.06896756 -0.026392054
-0.06827353 -0.021344831 0.009837029 -0.0063568233 -0.024115238 0.01482855 -0.032251764 -0.022524636
-0.025699284 -0.009773836 -0.015976561 -0.014979217 -0.009784515 0.055421215 -0.032528397 -0.012647575
-0.013369718 -0.015874926 -0.042253137 0.01660138 -0.027953621 -0.029022958 0.031730235 -0.008992218
-0.031371515 -0.091519825 -0.019811168 0.0019624676 -0.03475819 -0.029004393 -0.009400976 -0.04882013
-0.04327949 0.019747876 -0.051770426 -0.06138851 -0.024127664 0.011189452 0.024617905 -0.081607915
-0.030513283 -0.03331762 -0.02609793 -0.09092827 0.01262085 -0.03777064 -0.059053782 -0.0067723235
-0.044794854 -0.030211281 -0.039139926 -0.043335494 0.02774965 0.0044828444 0.013842974 0.018350812
-0.012590484 -0.026134606 -0.06071704 -0.03425859 0.008065729 -0.050345425 -0.023379818 -0.002285007
-0.061967686 -0.0099888705 0.0066046845 0.0021036603 -0.021095973 -0.028454572 -0.0023317398 -0.034704156
00000000: 3a39 9abc 68c9 1f3c 6cac ab3c 3bfd 66bb
00000010: 5869 283d 6860 403c af04 253c 80a5 4fbd
00000020: d2ac a93c 651b c3bc 2a5b adbd 9c44 1abd
00000030: e247 c23c 75ec 4e3b 8646 46bd 6686 10bc
00000040: 4a88 54bd 0590 1cbd c200 d8bc 999d 593c
00000050: 1da6 6b3b 2d96 0abd 5908 39bc ad31 72bc
00000060: ebac 12bc a0fa f0bc 5944 9cbc 835b 45bd
00000070: 8d00 a23b 006e eabc 2c98 eabc d27d dfbd
00000080: 3f1d 263c b226 85bb e085 71bd 491b 07bd
00000090: d020 e8bc ffce e93b bb20 fbbc e398 cbbc
000000a0: c52e 95bd 68f9 a2bc 82b2 00bc eb38 9eba
000000b0: 3a24 af3c 8fce 84bc a9e1 4bbd cde3 503c
000000c0: 9472 8a3b 1b90 b0bd 296c 21bc 8988 ae3b
000000d0: 054c 4bbd 9567 2f3d dd3e 8dbd 2634 d8bc
000000e0: fed2 8bbd 5bdb aebc 7d2b 213c e64c d0bb
000000f0: 528d c5bc 72f3 723c 6d1a 04bd 9685 b8bc
00000100: 4e87 d2bc 7022 20bc 47e1 82bc 646b 75bc
00000110: 3b4f 20bc 5b01 633d 7f3c 05bd c637 4fbc
00000120: a90c 5bbc 220c 82bc a011 2dbd 9eff 873c
00000130: fefe e4bc 8ec1 edbc 90f7 013d 1954 13bc
00000140: 6b7f 00bd bf6e bbbd 084b a2bc be9c 003b
00000150: 9b5e 0ebd 9f9a edbc 8d06 1abc 9ef7 47bd
00000160: d645 31bd 4cc6 a13c 3a0d 54bd 8572 7bbd
00000170: 61a7 c5bc f753 373c 7dab c93c 0d22 a7bd
00000180: fef6 f9bc 0f78 08bd 53cb d5bc 9a38 babd
00000190: aec7 4e3c 63b5 1abd 61e2 71bd 5eea ddbb
000001a0: cf7a 37bd a67d f7bc 3051 20bd 8f80 31bd
000001b0: 3c53 e33c d3e4 923b a4cd 623c 7154 963c
000001c0: 5148 4ebc 3e18 d6bc 6eb2 78bd bc52 0cbd
000001d0: 1f26 043c 0137 4ebd 0887 bfbc 0ec0 15bb
000001e0: d4d1 7dbd 5ca8 23bc 1c6c d83b 90dd 093b
000001f0: 76d1 acbc 9019 e9bc 1ad0 18bb f225 0ebd

bn1.running_mean f4 [128]
-0.05298587 0.0050826464 0.05658458 -0.07044001 0.01260556 0.015315863 -0.035782892 -0.016623806
0.08987631 0.109266944 -0.07699468 -0.04881528 -0.055917595 -0.06877433 0.24341741 0.23323585
0.09425899 0.058920592 -0.0782973 0.044694543 0.08190393 -0.04886949 0.1270508 -0.15831213
-0.10124658 0.039453357 -0.05162431 -0.118170984 0.020448692 -0.025442218 0.030963851 -0.09975337
-0.104620025 0.029552428 -0.14291565 -0.013049163 0.00015085796 -0.03346409 -0.049414366 -0.06448888
-0.051297735 0.19983973 0.052591234 -0.08191094 -0.045795426 -0.08220966 -0.2108283 -0.10124374
-0.01299695 -0.1215124 -0.03250856 0.14997594 0.071095675 -0.06761692 0.011967294 -0.04741469
-0.060706273 0.008195056 -0.08744827 0.182263 0.086377494 0.016118286 -0.07372757 0.14160971
-0.096786544 -0.013120601 0.008775956 -0.052360915 -0.06581337 0.13151741 -0.05004569 0.10977681
0.049108908 -0.044692162 0.1999122 0.063922845 0.03182789 -0.014780483 -0.0040681227 0.012052088
-0.0109117385 0.02838528 -0.13710544 0.08776329 0.004259856 0.027124101 -0.007847032 -0.025247347
-0.0010160559 0.04067935 0.026357962 -0.19423926 -0.008443451 -0.08299053 0.0009873287 0.16505432
0.074166276 -0.087726854 0.032139063 0.21754137 -0.04029975 0.19219255 -0.12931812 0.08067506
-0.12155303 0.114840776 0.10315354 -0.06975469 0.026157217 -0.057314806 -0.019892095 0.015192451
-0.09095095 -0.18895315 -0.088463865 -0.09659318 -0.0017144887 -0.06929972 -0.044143632 0.0074448073
-0.14065138 0.059423354 0.009741007 -0.15977511 -0.056690447 -0.032248102 -0.10922286 0.20142926
00000000: b607 59bd 548c a63b 3cc5 673d da42 90bd
00000010: 8d87 4e3c 63ef 7a3c 1591 12bd a62e 88bc
00000020: 1211 b83d 59c7 df3d 63af 9dbd 88f2 47bd
00000030: d909 65bd 8ed9 8cbd 6a42 793e 61d5 6e3e
00000040: db0a c13d b856 713d 565a a0bd a011 373d
00000050: 3fbd a73d 602b 48bd 9b19 023e 931c 22be
00000060: 5e5a cfbd d899 213d 0374 53bd a103 f2bd
00000070: 0484 a73c 336c d0bc e7a7 fd3c 7f4b ccbd
00000080: 0643 d6bd ef17 f23c 7b58 12be 28cc 55bc
00000090: a02f 1e39 a411 09bd b866 4abd bf12 84bd
000000a0: 931d 52bd c9a2 4c3e e869 573d ecc0 a7bd
000000b0: fc93 3bbd 8a5d a8bd 60e3 57be e158 cfbd
000000c0: 29f1 54bc 7edb f8bd b227 05bd 4b93 193e
000000d0: 9c9a 913d bd7a 8abd 7812 443c e835 42bd
000000e0: 24a7 78bd 8e44 063c 1418 b3bd 27a3 3a3e
000000f0: afe6 b03d 7f0a 843c 7bfe 96bd 2302 113e
00000100: 0638 c6bd caf7 56bc 07c9 0f3c 6678 56bd
00000110: 29c9 86bd 80ac 063e b6fc 4cbd aad2 e03d
00000120: 6c26 493d 210f 37bd c9b5 4c3e fbe9 823d
00000130: f65d 023d d729 72bc e34d 85bb 1f76 453c
00000140: 26c7 32bc 3f88 e83c 5e65 0cbe 3dbd b33d
00000150: 4396 8b3b 5d33 de3c d690 00bc 86d3 cebc
00000160: 2e2d 85ba 649f 263d a7ec d73c a8e6 46be
00000170: 6656 0abc f0f6 a9bd 4169 813a 0004 293e
00000180: 7de4 973d 23aa b3bd 40a4 033d 2ac3 5e3e
00000190: 5a11 25bd 20ce 443e f86b 04be f738 a53d
000001a0: ccf0 f8bd a431 eb3d 2a42 d33d 8cdb 8ebd
000001b0: a947 d63c eec2 6abd bff4 a2bc c2e9 783c
000001c0: 7e44 babd ef7c 41be 8b2c b5bd a5d2 c5bd
000001d0: b2b8 e0ba 03ed 8dbd f4cf 34bd 92f3 f33b
000001e0: ea06 10be e765 733d bf98 1f3c 169c 23be
000001f0: 3e34 68bd 9616 04bd 3cb0 dfbd 7943 4e3e

bn1.running_var f4 [128]
0.22788562 0.27156022 0.298904 0.23060563 0.23716044 0.18441889 0.18456891 0.16330789
0.29802588 0.4801354 0.38104653 0.2092483 0.32684606 0.3216298 0.98432064 0.44168076
0.46726236 0.25351003 0.44102332 0.3377355 0.34003478 0.25521213 0.59542686 0.29157883
0.38819277 0.24541673 0.39177448 0.37478855 0.113143094 0.3042257 0.4011316 0.3633711
0.2822877 0.18333864 0.8133289 0.36949563 0.3435213 0.30784273 0.595983 0.37621668
0.47655374 0.6472515 0.19816586 0.32129148 0.28967005 0.2674339 0.5802338 0.40474036
0.15821524 0.5325825 0.6496119 0.34349382 0.47049192 0.30296737 0.16275033 0.18287131
0.21308862 0.20649035 0.19513386 0.5441949 0.22424215 0.43517268 0.19865355 0.5361771
0.34524897 0.14014724 0.16893342 0.6451618 0.39795223 0.52204794 0.4960098 0.33496642
0.2925177 0.32260284 0.71372175 0.4697899 0.20117065 0.19941324 0.27898926 0.09273124
0.1582795 0.26559165 0.5854648 0.3335011 0.30693388 0.26626167 0.4190108 0.34469342
0.18237445 0.26764807 0.23225456 0.5316575 0.2650545 0.7136369 0.27156144 0.45862344
0.3213659 0.38564366 0.38163733 0.70560455 0.21144575 0.4502497 0.20473483 0.3153219
0.40474406 0.46136704 0.22715384 0.31445855 0.2943439 0.40094084 0.4058205 0.48783678
0.1797524 0.40066323 0.5618459 0.53645146 0.14612377 0.31124672 0.20757818 0.23343244
0.3255727 0.3625004 0.25983986 0.21324031 0.31294867 0.26623893 0.28371155 0.6033432
00000000: d95a 693e f109 8b3e f209 993e e223 6c3e
00000010: 30da 723e 4ed8 3c3e a2ff 3c3e 2f3a 273e
00000020: d996 983e 4fd4 f53e 8818 c33e 3045 563e
00000030: 5e58 a73e a9ac a43e 70fc 7b3f fb23 e23e
00000040: 033d ef3e 11cc 813e cfcd e13e abeb ac3e
00000050: 0a19 ae3e 2aab 823e e56d 183f d249 953e
00000060: 34c1 c63e 864e 7b3e aa96 c83e 49e4 bf3e
00000070: 91b7 e73d 79c3 9b3e 1f61 cd3e c70b ba3e
00000080: 0388 903e 20bd 3b3e 5336 503f 882e bd3e
00000090: 06e2 af3e 909d 9d3e 5892 183f 799f c03e
000000a0: dafe f33e 46b2 253f feeb 4a3e 5180 a43e
000000b0: a24f 943e 19ed 883e 348a 143f 213a cf3e
000000c0: 2d03 223e 5457 083f f74c 263f 6cde af3e
000000d0: 51e4 f03e 8a1e 9b3e 06a8 263e 9e42 3b3e
000000e0: e733 5a3e 3572 533e 2cd1 473e 5b50 0b3f
000000f0: bc9f 653e f4ce de3e d66b 4b3e e742 093f
00000100: 79c4 b03e c282 0f3e e2fc 2c3e 5329 253f
00000110: 65c0 cb3e efa4 053f fff4 fd3e b880 ab3e
00000120: e1c4 953e 332c a53e 78b6 363f 4d88 f03e
00000130: aeff 4d3e fc32 4c3e aed7 8e3e e0e9 bd3d
00000140: 0514 223e a1fb 873e 05e1 153f a8c0 aa3e
00000150: 7026 9d3e 7353 883e 9588 d63e a87b b03e
00000160: 5ec0 3a3e 2b09 893e 24d4 6d3e b51a 083f
00000170: 39b5 873e e8b0 363f 1a0a 8b3e b1d0 ea3e
00000180: 128a a43e 1673 c53e f865 c33e 80a2 343f
00000190: 3c85 583e 2187 e63e 02a6 513e df71 a13e
000001a0: 9d3a cf3e 4d38 ec3e 049b 683e b600 a13e
000001b0: 3eb4 963e 1e48 cd3e b4c7 cf3e bec5 f93e
000001c0: 0311 383e bb23 cd3e 22d5 0f3f e254 093f
000001d0: 78a1 153e bb5b 9f3e 608f 543e ea08 6f3e
000001e0: 77b1 a63e a799 b93e bb09 853e ab5b 5a3e
000001f0: cf3a a03e 7850 883e a442 913e b374 1a3f

fc2.weight f4 [64, 128]
0.046608962 -0.12126172 0.06076044 -0.0036011369 -0.04039035 0.01001034 -0.02895112 -0.024511993
0.0021866646 -0.013712026 0.12419548 -0.00826521 -0.0016552804 -0.020719625 0.014016376 0.06961634
-0.0032100868 -0.08011824 -0.041859437 -0.011127739 -0.04682052 0.02441122 0.038744047 0.063415006
0.12155724 -0.037287697 0.09135369 -0.006566329 -0.115506954 -0.046202715 -0.086501375 -0.03710863
-0.0542392 0.07838426 0.054411188 0.005896288 -0.018870255 -0.07124968 -0.03151043 0.0085494965
-0.055870738 0.08547028 -0.09226222 0.075126246 -0.021404136 0.08307924 -0.028235393 0.086149566
0.03256881 0.08607245 -0.02210379 -0.06742651 0.061412394 -0.035420265 -0.06237336 0.10421184
-0.05472665 -0.0027795623 0.03085762 0.028414665 -0.108728215 -0.021175025 0.06418556 -0.10941145
0.0703747 -0.049699675 -0.062373597 0.043652263 0.11354524 -0.002724914 -0.07247703 -0.07463758
-0.08631551 0.043809135 -0.0076660607 0.030633183 -0.018701062 0.037611123 -0.034086738 -0.036793176
0.019852003 -0.015595082 -0.018351797 -0.030499663 -0.07372244 0.08559231 -0.020335015 0.08493195
-0.09964084 0.050907798 -0.0045563034 -0.0048251743 0.0016410858 0.0633121 0.05129714 0.018115992
-0.09954694 -0.012787704 0.03651225 0.055377867 0.07022439 -0.06681457 0.13505417 0.008976938
0.026138287 -0.060005013 -0.020166522 0.08245789 -0.0008529732 -0.105081245 0.06856878 0.04051953
0.0423964 -0.015790507 0.02021295 -0.06854023 0.019067606 -0.013657299 0.049963873 -0.15062632
0.062260028 -0.15216823 -0.0007509112 0.098339625 0.05979449 0.01636199 0.03189015 -0.07839156
0.014032444 -0.09721896 0.06987273 -0.05018016 0.017291673 0.051698875 -0.08141503 -0.026949644
-0.0011341906 -0.07523557 -0.046010416 0.049376816 0.06325097 -0.072028 0.062228482 0.07154054
0.0134934895 -0.02047149 0.09484564 -0.071455956 -0.017889524 -0.00063430826 -0.08230592 -0.010123089
-0.0833544 -0.009262705 0.09836233 -0.027271971 0.028127244 0.051941223 0.0053140535 0.0046164147
0.059509307 -0.09182834 -0.022280237 0.020809723 -0.0025056184 -0.029555786 0.12982005 -0.048391867
0.006369798 0.104440615 0.086318746 -0.06477683 -0.051612575 -0.032460984 0.0064831655 -0.082869194
-0.0021005834 0.06060152 0.024713626 0.014305521 -0.10736509 -0.041024156 -0.07176769 -0.09766884
-0.079410546 0.052985433 -0.008140641 -0.03143566 -0.04251959 -0.10216075 0.027929574 -0.035795685
0.08145669 -0.11188117 -0.029167823 -0.08741437 -0.056232914 -0.0534888 0.022655774 -0.024508359
-0.033935502 0.07881625 0.061221633 -0.04176759 -0.010397419 -0.04867621 0.029097073 0.026591413
-0.020638056 0.004956819 0.0050925934 0.050226796 -0.07128342 -0.033927336 0.046004295 -0.06505035
0.011953451 0.11250368 -0.023382036 -0.014833288 0.094689354 0.06981801 -0.06922887 0.0596556
0.033103187 0.007876723 0.0182038 0.028024606 0.0021857384 0.05526723 0.027541397 0.028547402
-0.05246262 0.051982097 -0.004680031 -0.009769974 0.089688934 0.0030491003 0.003100189 0.1028241
-0.08173474 -0.015130227 0.04861039 0.0066380934 0.0023732525 -0.08419929 -0.0023578214 0.03859856
-0.05704056 -0.06550894 0.08514515 -0.09999036 -0.032614112 -0.020411337 -0.016407441 -0.046497505
00000000: 0ae9 3e3d 1158 f8bd f0df 783d 0d01 6cbb
00000010: 5a70 25bd 6902 243c e62a edbc 60cd c8bc
00000020: 254e 0f3b 68a8 60bc 335a fe3d ce6a 07bc
00000030: fef5 d8ba 34bc a9bc f1a4 653c 0393 8e3d
00000040: 5260 52bb 0815 a4bd cd74 2bbd 1f51 36bc
00000050: e0c6 3fbd 0afa c73c 14b2 1e3d badf 813d
00000060: 01f3 f83d fcba 18bd a517 bb3d 5c2a d7bb
00000070: e98e ecbd 0f3f 3dbd a227 b1bd 38ff 17bd
00000080: ec29 5ebd ed87 a03d 44de 5e3d a635 c13b
00000090: cb95 9abc 5aeb 91bd 1511 01bd 3013 0c3c
000000a0: b7d8 64bd 0b0b af3d faf3 bcbd cadb 993d
000000b0: ba57 afbc 7325 aa3d e94d e7bc 2f6f b03d
000000c0: df66 053d c146 b03d 0213 b5bc e916 8abd
000000d0: 908b 7b3d d714 11bd 357b 7fbd 046d d53d
000000e0: 0d29 60bd 5129 36bb 1fc9 fc3c dfc5 e83c
000000f0: e6ac debd 3f77 adbc b873 833d 1c13 e0bd
00000100: 9c20 903d e391 4bbd 757b 7fbd b7cc 323d
00000110: 688a e83d 7994 32bb d66e 94bd 96db 98bd
00000120: 30c6 b0bd 3571 333d 9433 fbbb 71f2 fa3c
00000130: f832 99bc 1f0e 1a3d 899e 0bbd 71b4 16bd
00000140: aba0 a23c 8482 7fbc 8256 96bc 6eda f9bc
00000150: cafb 96bd 054b af3d 9e95 a6bc cdf0 ad3d
00000160: 7f10 ccbd b284 503d 0b4d 95bb 7f1c 9ebb
00000170: b419 d73a c6a9 813d f31c 523d fd67 943c
00000180: 44df cbbd 8583 51bc de8d 153d e7d3 623d
00000190: ced1 8f3d 14d6 88bd a44b 0a3e 0214 133c
000001a0: f61f d63c d1c7 75bd 4334 a5bc afdf a83d
000001b0: 109a 5fba d634 d7bd ca6d 8c3d cff7 253d
000001c0: d9a7 2d3d 185b 81bc a195 a53c d25e 8cbd
000001d0: ab33 9c3c ddc2 5fbc eba6 4c3d c93d 1abe
000001e0: 5f04 7f3d fdd1 1bbe ccd8 44ba 4966 c93d
000001f0: 11eb 743d 9409 863c 3f9f 023d c18b a0bd
00000200: 56e8 653c bc1a c7bd 6f19 8f3d b689 4dbd
00000210: 44a7 8d3c 33c2 533d ecbc a6bd 80c5 dcbc
00000220: 1fa9 94ba 1b15 9abd 6b75 3cbd 583f 4a3d
00000230: b989 813d 6b83 93bd 4be3 7e3d d983 923d
00000240: cc13 5d3c d4b3 a7bc 6e3e c23d 8057 92bd
00000250: 0d8d 92bc b547 26ba 0290 a8bd 50db 25bc
00000260: b6b5 aabd 9ac2 17bc 3072 c93d 7869 dfbc
00000270: 1b6b e63c 52c0 543d 8321 ae3b 4b45 973b
00000280: 08c0 733d 7f10 bcbd 0b85 b6bc 2779 aa3c
00000290: 4d35 24bb fa1e f2bc 8cef 043e 8d36 46bd
000002a0: bdb9 d03b f6e4 d53d e2c7 b03d b7a9 84bd
000002b0: b567 53bd cff5 04bd bc70 d43b 53b7 a9bd
000002c0: f1a9 09bb 4d39 783d 3b74 ca3c b461 6a3c
000002d0: 3ae2 dbbd f208 28bd f0fa 92bd 9a06 c8bd
000002e0: ffa1 a2bd 4107 593d 5360 05bc aec2 00bd
000002f0: 0629 2ebd a839 d1bd 90cc e43c 7f9e 12bd
00000300: c4d2 a63d f421 e5bd 5cf1 eebc 4e06 b3bd
00000310: 7c54 66bd 1217 5bbd 9a98 b93c c1c5 c8bc
00000320: f4ff 0abd 6a6a a13d 89c3 7a3d 7e14 2bbd
00000330: f059 2abc b560 47bd fc5c ee3c 3cd6 d93c
00000340: 2411 a9bc d06c a23b c5df a63b 9dba 4d3d
00000350: 0bfd 91bd 64f7 0abd 006f 3c3d 1e39 85bd
00000360: 68d8 433c 5468 e63d af8b bfbc 5207 73bc
00000370: 7eec c13d bffc 8e3d dec7 8dbd 6e59 743d
00000380: 3597 073d 5f0d 013c 2320 953c dc93 e53c
00000390: 9b3e 0f3b e45f 623d 7f9e e13c 3edc e93c
000003a0: 0be3 56bd 2eeb 543d f25a 99bb 3e12 20bc
000003b0: d5ae b73d 6ad3 473b 8a2c 4b3b 7195 d23d
000003c0: 8b64 a7bd c6e4 77bc b01b 473d 5d84 d93b
000003d0: 9288 1b3b ad70 acbd ae85 1abb 8619 1e3d
000003e0: 5da3 69bd 8d29 86bd 9560 ae3d bfc7 ccbd
000003f0: 6096 05bd ad35 a7bc e668 86bc 2b74 3ebd

fc2.bias f4 [64]
0.00027044577 0.0003880827 3.480431e-05 7.964409e-05 -0.0023509862 -0.0024865044 -0.0023476144 -0.0006940809
-0.0013457721 -0.0013693176 -0.00021882106 0.00047262915 -0.002246601 3.771302e-05 -0.00072909833 -0.0007382911
0.0007872536 0.001387415 6.523089e-05 -0.00044032955 -0.0022047444 -0.0013124452 0.0002327542 -0.00077647174
-0.0013037892 -0.0004489853 -7.216539e-05 -0.0024421865 0.00032722746 0.0024001964 0.0020078358 0.0003813405
0.00014945367 -0.0006444732 -0.0014600356 0.00015607683 0.0011193866 0.00066037104 0.0013832665 0.0011971972
-0.0002983505 -1.4454301e-05 -0.0011051359 0.002394834 -0.0007686474 0.0024082644 0.0003383229 -0.00030061416
-0.0011977699 -0.00034035847 6.808355e-05 0.0010543442 0.0005103315 0.00020003019 0.001709132 -0.00018768018
0.0024218545 0.0021238264 -0.0011245306 0.00034938488 -0.0005492 -6.626712e-05 0.002376647 5.1499388e-05
00000000: 9eca 8d39 9477 cb39 d8fa 1138 9806 a738
00000010: 0113 1abb 9ff4 22bb 6fda 19bb fbf2 35ba
00000020: 9e64 b0ba ad7a b3ba 5573 65b9 36cb f739
00000030: b63b 13bb 0c2e 1e38 f620 3fba e189 41ba
00000040: b25f 4e3a ecd9 b53a 91cc 8838 08dc e6b9
00000050: 797d 10bb 5a06 acba 7b0f 7439 238c 4bba
00000060: e8e3 aaba c965 ebb9 8057 97b8 170d 20bb
00000070: ba8f ab39 9d4c 1d3b e595 033b a8ee c739
00000080: aab6 1c39 ddf1 28ba aa5e bfba 8ea8 2339
00000090: 62b8 923a c01c 2d3a b94e b53a 46eb 9c3a
000000a0: ed6b 9cb9 c080 72b7 35da 90ba a6f2 1c3b
000000b0: 0e7f 49ba f9d3 1d3b ee60 b139 c09b 9db9
000000c0: 7dfe 9cba 2472 b2b9 14c8 8e38 ec31 8a3a
000000d0: c4c7 053a 32bf 5139 f404 e03a 04cc 44b9
000000e0: fab7 1e3b e52f 0b3b fc64 93ba a52d b739
000000f0: 30f8 0fba e4f8 8ab8 85c1 1b3b 0c01 5838

bn2.weight f4 [64]
0.98053503 0.9747426 0.97347206 0.98188835 0.9796883 0.9678438 1.011866 1.0202317
0.98589027 1.0420189 0.9135516 1.011816 0.99824196 0.97965086 1.0757838 1.0085194
0.9428774 0.9491662 1.0182961 1.015502 0.95032364 0.99125725 0.99898934 0.99793345
0.98963577 1.0523858 1.0619075 0.9582766 1.0126476 0.9605575 0.9848879 0.9270633
0.98461944 0.95703304 1.0399922 0.9554837 1.0118222 0.94428843 1.0181279 0.96493167
1.013895 0.9621394 0.9966472 0.9442337 0.92673427 0.9859333 1.0028589 1.0041176
1.0519363 0.9876247 0.95981157 1.0125562 1.0639364 0.99269456 0.9902487 0.9737968
1.0140299 0.97403336 1.0143987 0.96595824 0.98780113 1.0268824 0.9464673 0.98547083
00000000: 5804 7b3f bb88 793f 7735 793f 095d 7b3f
00000010: dacc 7a3f 9cc4 773f d384 813f f496 823f
00000020: 4e63 7c3f e060 853f 85de 693f 3083 813f
00000030: c98c 7f3f 66ca 7a3f 49b3 893f 2a17 813f
00000040: 6a60 713f 8efc 723f 8757 823f f8fb 813f
00000050: 6948 733f 09c3 7d3f c4bd 7f3f 9178 7f3f
00000060: c558 7d3f 94b4 863f 96ec 873f 9e51 753f
00000070: 709e 813f 19e7 753f 9d21 7c3f 0554 6d3f
00000080: 0510 7c3f 1e00 753f 771e 853f 949a 743f
00000090: 6483 813f e3bc 713f 0452 823f c305 773f
000000a0: 50c7 813f c54e 763f 4524 7f3f 4db9 713f
000000b0: 753e 6d3f 2066 7c3f ae5d 803f ed86 803f
000000c0: d9a5 863f f9d4 7c3f 36b6 753f 719b 813f
000000d0: 112f 883f 3b21 7e3f f080 7d3f bf4a 793f
000000e0: bbcb 813f 405a 793f d1d7 813f 0a49 773f
000000f0: 89e0 7c3f e270 833f ae4b 723f d147 7c3f

bn2.bias f4 [64]
-0.07386147 0.0017604494 -0.02335447 -0.022506885 0.005266239 -0.057174295 0.0063629663 -0.021089356
-0.006952092 -0.034946036 -0.06551192 -0.048504848 -0.027132012 -0.0022217073 0.007672429 0.019020714
0.010449305 -0.0073863477 -0.06472273 -0.046606272 -0.03741808 -0.028198207 -0.02637588 -0.0017163358
-0.0016708522 0.02605155 0.03592261 0.006338217 -0.023877487 -0.009337345 -0.027847135 -0.052065138
-0.014270095 -0.03886248 0.05402901 -0.09177108 0.03679444 -0.0108420905 -0.0033200523 -0.02046524
-0.021024656 -0.017853187 0.011360134 -0.015605919 -0.064409904 0.009297043 -0.0092553655 0.03273262
0.05153384 -0.017095352 -0.03173315 -0.0109940665 0.055791087 -0.047759574 0.019804746 -0.031410493
0.025905149 0.010984233 0.012458175 -0.031986862 0.018674629 -0.067640364 -0.073637694 0.00093733467
00000000: af44 97bd e1be e63a e051 bfbc 5c60 b8bc
00000010: 6a90 ac3b 982f 6abd 6e80 d03b 96c3 acbc
00000020: 60ce e3bb 9323 0fbd 1d2b 86bd 05ad 46bd
00000030: f443 debc 109a 11bb 0069 fb3b 54d1 9b3c
00000040: 9033 2b3c 2d09 f2bb 5a8d 84bd 38e6 3ebd
00000050: b343 19bd edff e6bc 3b12 d8bc acf6 e0ba
00000060: 7f00 dbba 0f6a d53c 9623 133d d1b0 cf3b
00000070: b89a c3bc aafb 18bc ad1f e4bc 4142 55bd
00000080: 1ecd 69bc 442e 1fbd 864d 5d3d 7af2 bbbd
00000090: c4b5 163d 06a3 31bc 3c95 59bb b8a6 a7bc
000000a0: e63b acbc d940 92bc db1f 3a3c f8af 7fbc
000000b0: 57e9 83bd a052 183c d1a3 17bc a412 063d
000000c0: 2615 533d 8d0b 8cbc 9ffa 01bd 7520 34bc
000000d0: 3285 643d 8b9f 43bd 903d a23c 4aa8 00bd
000000e0: 0937 d43c 36f7 333c 601d 4c3c a804 03bd
000000f0: 89fb 983c 0887 8abd 5ccf 96bd 77b7 753a

bn2.running_mean f4 [64]
0.0004852272 -0.1466858 0.15508255 -0.2009565 0.36942703 -0.10098355 0.30379963 0.18754023
-0.25196746 0.118942484 -0.5677402 0.16530289 -0.2423463 0.3407102 -0.28890327 -0.40810788
0.21825211 0.10077432 0.0066226395 -0.06286585 0.11473273 -0.1027218 0.012685816 0.08067645
-0.5635681 0.0010188569 -0.19380645 -0.024528246 0.19911818 0.24441466 -0.16023107 -0.30203867
-0.20967935 0.3716173 -0.36654913 -0.27437833 -0.2998672 -0.11162909 0.1095523 0.07408403
0.33782452 -0.29335082 -0.32805488 0.21225436 -0.13356198 0.3242228 -0.20697553 -0.07120492
-0.24047242 -0.041617706 0.069940045 0.0064979857 -0.101066865 -0.1837994 -0.26646468 0.038642026
0.113066986 0.32700178 -0.3566762 -0.10670447 0.034696203 0.0030872065 -0.023909224 -0.49028465
00000000: 1866 fe39 cd34 16be f6cd 1e3e 8ac7 4dbe
00000010: 8a25 bd3e 77d0 cebd a08b 9b3e 8c0a 403e
00000020: e101 81be 1e98 f33d 6c57 11bf 2945 293e
00000030: a129 78be 9171 ae3e 21eb 93be 84f3 d0be
00000040: 7b7d 5f3e c462 ce3d ba02 d93b d0bf 80bd
00000050: fef8 ea3d cf5f d2bd 2bd8 4f3c b239 a53d
00000060: 0046 10bf 2a8b 853a 3375 46be 76ef c8bc
00000070: a3e5 4b3e d647 7a3e 9d13 24be d0a4 9abe
00000080: 2fb6 56be 9f44 be3e 54ac bbbe 517b 8cbe
00000090: 3288 99be cb9d e4bd f55c e03d 5eb9 973d
000000a0: 56f7 ac3e 1432 96be cff6 a7be 3559 593e
000000b0: 79c4 08be 8800 a63e 65f1 53be e3d3 91bd
000000c0: 673e 76be 5477 2abd ba3c 8f3d 0eed d43b
000000d0: 25fc cebd e935 3cbe 0f6e 88be 1a47 1e3d
000000e0: aa8f e73d c76c a73e 439e b6be e087 dabd
000000f0: 9b1d 0e3d bb52 4a3b 47dd c3bc 9706 fbbe

bn2.running_var f4 [64]
0.728986 0.4936756 0.45586264 0.62280256 0.6437541 0.9990423 0.74187446 0.8599449
0.728783 1.0615611 0.6560704 0.96110547 0.83995885 0.5062527 0.6634148 0.6447913
0.5006142 0.48878202 1.4458085 0.6747882 0.7483547 0.36319026 0.70359594 1.0219744
0.6802894 1.1732389 0.6013543 0.4835867 0.97008073 0.5845788 0.50635284 1.037103
0.48627156 0.6261675 0.790179 0.77067953 0.6955509 0.6681235 0.46362588 0.73245776
0.6709139 1.0624154 0.87176037 0.6659233 0.365608 0.59712625 0.6197645 0.4521043
0.6645815 0.4856589 0.85682875 0.773109 0.55142045 0.79631793 1.0963631 0.5135324
0.85290766 0.7455473 0.9352478 0.8262369 0.6443895 0.6065475 0.5939941 0.93476135
00000000: d49e 3a3f 0cc3 fc3e d466 e93e fd6f 1f3f
00000010: 12cd 243f 3cc1 7f3f 7ceb 3d3f 5925 5c3f
00000020: 8691 3a3f 3ce1 873f 3bf4 273f 020b 763f
00000030: 8b07 573f c799 013f 8dd5 293f 0b11 253f
00000040: 4128 003f a341 fa3e 4110 b93f ebbe 2c3f
00000050: 2c94 3f3f 13f4 b93e dd1e 343f 0fd0 823f
00000060: 7227 2e3f b12c 963f 5bf2 193f ad98 f73e
00000070: 3657 783f f5a6 153f 57a0 013f cbbf 843f
00000080: 96f8 f83e 834c 203f 2c49 4a3f 414b 453f
00000090: a00f 323f 240a 2b3f 5f60 ed3e 5a82 3b3f
000000a0: 03c1 2b3f 3afd 873f b02b 5f3f f379 2a3f
000000b0: f930 bb3e 44dd 183f e3a8 1e3f 377a e73e
000000c0: 0322 2a3f 49a8 f83e 2159 5b3f 79ea 453f
000000d0: e429 0d3f 7edb 4b3f a055 8c3f dc76 033f
000000e0: 2858 5a3f 30dc 3e3f 666c 6f3f 4384 533f
000000f0: b6f6 243f b246 1b3f ff0f 183f 854c 6f3f

fc3.weight f4 [32, 64]
-0.1813441 -0.03999329 -0.009137668 0.0832904 -0.040869314 -0.09774416 0.0707261 -0.07603417
-0.1225284 -0.08144208 0.0656035 0.029700868 0.060447324 -0.13889016 -0.085216306 0.032904044
-0.101656824 0.014861096 0.0049947933 0.027314207 -0.07668198 -0.026993927 -0.0558915 -0.14519206
0.14614713 -0.036270358 -0.007533186 -0.124919355 0.13265277 0.0007122104 -0.013074409 -0.069057025
-0.12550037 0.06565321 -0.10459458 -0.13829294 -0.09673279 -0.04398655 0.08478504 -0.10529292
-0.05272243 -0.033773005 0.08828822 -0.039760698 -0.10167625 0.039256 -0.010546372 -0.08028129
-0.13270065 -0.0689076 0.11606361 -0.05513352 0.071993634 -0.020636106 -0.02556908 -0.10942151
-0.09073717 0.10363564 -0.03389825 0.013570827 0.017277153 0.08022479 -0.0610897 -0.00021191395
-0.0887975 -0.030602805 -0.098304935 -0.15209633 -0.06967096 0.11982962 0.057576295 0.078186944
0.09622576 -0.13665842 0.07639963 0.034104414 0.06747026 0.10386662 0.048012022 0.037196316
0.038743492 0.07104636 -0.17733295 -0.04968866 -0.036593594 -0.15568404 0.019739952 -0.012982804
0.035838287 -0.14253029 -0.019853437 -0.008045553 0.011146557 -0.07108761 -0.118140265 0.06364643
0.08605069 0.025009774 -0.049039535 0.05425522 0.09935057 0.102637224 0.022546427 -0.09324404
-0.08091207 -0.05238416 0.02566723 -0.02717457 -0.091891944 0.09858861 -0.1805283 0.0941079
-0.063286595 -0.10778175 -0.047241587 -0.061415534 -0.14605866 -0.09088639 0.020034606 0.086694576
0.07797107 -0.09868917 0.07732537 0.031409077 0.017396469 -0.08569177 -0.20130415 0.020717153
-0.14076431 -0.15349135 0.076553166 0.08952315 0.022590574 0.07086735 -0.07685204 0.06086701
-0.083602846 -0.04700083 0.057127614 0.048618082 0.16958365 -0.087924935 -0.08252861 -0.044862103
0.04229468 -0.025726583 0.03412049 -0.051831666 -0.044668198 -0.0905406 -0.08567027 0.046391174
0.040413443 -0.10065777 -0.08924376 -0.091160126 0.0027848606 -0.08164253 -0.120779045 0.0038301211
-0.07681493 0.063688725 -0.04869102 -0.06633428 -0.007490446 -0.061056025 0.065721005 0.11542806
0.030371381 -0.10829235 0.07076252 -0.004424181 -0.07094448 0.024513403 -0.10816898 0.002354777
0.10807994 -0.14591026 0.06593776 0.06418266 0.019396113 -0.20041932 -0.02890107 0.062196553
-0.034927916 0.13243788 -0.076696396 -0.048999537 0.065888785 -0.08320557 0.031828668 0.018730728
0.13868554 0.11179835 0.043367032 -0.0050767036 0.050439544 0.05113196 -0.11621773 0.010999246
0.038166396 -0.035972215 0.14167666 0.05312376 0.028153988 -0.06122933 -0.17177993 -0.1330371
0.016769256 0.10852384 0.08881837 0.030587263 -0.070255764 0.042330112 0.075452 0.070357926
-0.095133476 0.0118859075 -0.04857986 0.0033140557 0.008971668 -0.10690728 0.07701396 0.12775068
0.10130715 0.047911257 -0.05918962 0.12401513 -0.022286663 -0.056194536 0.11193562 0.07917287
0.12874317 0.038129304 -0.13280296 -0.06509348 0.104850635 0.088780925 0.07053922 -0.05738792
-0.10139474 -0.062398043 -0.082374945 0.06391716 0.040112216 0.08385176 0.052847393 -0.01107678
-0.12549686 -0.063566536 -0.08028803 -0.12616627 0.113280594 -0.08066139 0.09702295 0.035383455
00000000: 45b2 39be 01d0 23bd 28b6 15bc 2894 aa3d
00000010: 9566 27bd 172e c8bd d8d8 903d ceb7 9bbd
00000020: 2bf0 fabd 1bcb a6bd 215b 863d 3c4f f33c
00000030: 9d97 773d 3939 0ebe e385 aebd 64c6 063d
00000040: 7431 d0bd f47b 733c 5dab a33b 0bc2 df3c
00000050: 710b 9dbd 5e22 ddbc 7cee 64bd 3aad 14be
00000060: 98a7 153e 3a90 14bd f2d8 f6bb b8d5 ffbd
00000070: 21d6 073e a2b3 3a3a 0c36 56bc c56d 8dbd
00000080: 2b83 00be 3175 863d af35 d6bd aa9c 0dbe
00000090: d71b c6bd 3e2b 34bd c7a3 ad3d d0a3 d7bd
000000a0: 7af3 57bd 9055 0abd 74d0 b43d 1ddc 22bd
000000b0: a33b d0bd e6ca 203d b1ca 2cbc 846a a4bd
000000c0: aee2 07be 6e1f 8dbd c2b2 ed3d b0d3 61bd
000000d0: 6671 933d 0d0d a9bc 3f76 d1bc 6218 e0bd
000000e0: 69d4 b9bd ec3e d43d e4d8 0abd 2d58 5e3c
000000f0: d188 8d3c e54c a43d 3139 7abd 3835 5eb9
00000100: 77db b5bd bcb2 fabc 1954 c9bd 24bf 1bbe
00000110: a6af 8ebd 3b69 f53d 1fd5 6b3d 7a20 a03d
00000120: 0312 c53d 2ff0 0bbe 6977 9c3d 12b1 0b3d
00000130: d92d 8a3d 06b8 d43d 41a8 443d 2a5b 183d
00000140: 7fb1 1e3d c180 913d c596 35be 5686 4bbd
00000150: 2ae3 15bd a36b 1fbe aeb5 a13c d4b5 54bc
00000160: 2bcb 123d 76f3 11be ada3 a2bc 7fd1 03bc
00000170: 0ca0 363c 6296 91bd 86f3 f1bd 0f59 823d
00000180: 583b b03d 4ce1 cc3c aedd 48bd b93a 5e3d
00000190: 5078 cb3d 7733 d23d 49b3 b83c bbf6 bebd
000001a0: 3ab5 a5bd c690 56bd 1544 d23c 349d debc
000001b0: d831 bcbd d3e8 c93d 69dc 38be a5bb c03d
000001c0: 679c 81bd aebc dcbd 6580 41bd db8e 7bbd
000001d0: 6790 15be a522 babd 9d1f a43c ed8c b13d
000001e0: 4caf 9f3d 8c1d cabd c35c 9e3d cea6 003d
000001f0: 0a83 8e3c 2b7f afbd ad22 4ebe 05b7 a93c
00000200: 8524 10be d62c 1dbe e8c7 9c3d ea57 b73d
00000210: de0f b93c e722 913d 9a64 9dbd b04f 793d
00000220: f837 abbd f183 40bd a5fe 693d c123 473d
00000230: 56a7 2d3e fd11 b4bd c304 a9bd 53c1 37bd
00000240: 303d 2d3d 8ec0 d2bc edc1 0b3d 714d 54bd
00000250: 00f6 36bd 5a6d b9bd e573 afbd ac04 3e3d
00000260: 9188 253d a925 cebd 6fc5 b6bd 29b2 babd
00000270: 3582 363b 3334 a7bd 015b f7bd c502 7b3b
00000280: 2551 9dbd 3c6f 823d 3c70 47bd 44da 87bd
00000290: 6a72 f5bb e215 7abd bc98 863d 8c65 ec3d
000002a0: 67cd f83c 61c8 ddbd f1eb 903d b8f8 90bb
000002b0: 574b 91bd 55d0 c83c b387 ddbd 9a52 1a3b
000002c0: 0459 dd3d 8069 15be 600a 873d 3372 833d
000002d0: 99e4 9e3c b93a 4dbe f0c1 ecbc d0c1 7e3d
000002e0: 9310 0fbd cc9d 073e 0013 9dbd bdb3 48bd
000002f0: b3f0 863d af67 aabd c75e 023d 2f71 993c
00000300: 9503 0e3e 89f6 e43d a1a1 313d 7a5a a6bb
00000310: b299 4e3d bf6f 513d 9003 eebd 2e36 343c
00000320: 5e54 1c3d 9a57 13bd b013 113e 4d98 593d
00000330: 31a3 e63c 9bcb 7abd 14e7 2fbe e13a 08be
00000340: ae5f 893c bf41 de3d 68e6 b53d 2492 fa3c
00000350: 41e2 8fbd 5762 2d3d 9486 9a3d d117 903d
00000360: 57d5 c2bd 1cbd 423c adfb 46bd a130 593b
00000370: e7fd 123c 34f2 dabd 7fb9 9d3d 13d1 023e
00000380: 207a cf3d 983e 443d d170 72bd a5fb fd3d
00000390: 8592 b6bc 3e2c 66bd 813e e53d 6325 a23d
000003a0: 40d5 033e 792d 1c3d 80fd 07be bb4f 85bd
000003b0: eebb d63d c6d2 b53d de76 903d 980f 6bbd
000003c0: 0ca8 cfbd 1795 7fbd 32b4 a8bd 00e7 823d
000003d0: b54c 243d 79ba ab3d 8276 583d 627b 35bc
000003e0: 4082 00be 2c2f 82bd 0d6e a4bd bb31 01be
000003f0: a8ff e73d cd31 a5bd f8b3 c63d 3eee 103d

fc3.bias f4 [32]
-0.001110075 0.0019390006 -0.00026835912 9.6106996e-05 -0.0008699333 -0.0054480494 0.0008156124 0.0019717275
-0.001400891 -0.002486501 -0.0012596435 -0.004422848 -0.0008793828 -0.0049269223 -0.0013937434 -0.0028520403
0.0023299935 -0.0007665391 -0.0015358864 0.005259791 -0.005431704 0.00089304283 -0.0009728711 -0.0018293094
0.002278754 0.0022664126 -0.004739519 0.0009884217 0.0055108555 -0.0011805146 -0.00063474436 7.0506605e-05
00000000: f07f 91ba 1026 fe3a 8db2 8cb9 0d8d c938
00000010: 3c0c 64ba 8d85 b2bb d2ce 553a 1938 013b
00000020: 1a9e b7ba 90f4 22bb 9f1a a5ba 8aed 90bb
00000030: 6186 66ba 0572 a1bb 45ae b6ba 4ce9 3abb
00000040: ceb2 183b 91f1 48ba cc4f c9ba 535a ac3b
00000050: 70fc b1bb 171b 6a3a 4608 7fba 70c5 efba
00000060: 2657 153b 1888 143b f84d 9bbb ee8d 813a
00000070: 6894 b43b 7fbb 9aba f964 26ba f2dc 9338

bn3.weight f4 [32]
1.0023351 0.9879365 0.9892773 0.91406804 0.9160898 0.95392793 0.97799695 0.9517733
0.98105866 0.90923524 0.91470367 1.0186404 0.9864022 0.9618095 0.9355209 1.0269731
0.9530646 0.95885706 0.9529371 1.0388114 1.0300016 0.94975036 0.93291557 1.0065682
1.0061424 1.0358367 1.0126965 0.97458184 0.93458396 0.9430782 0.9613242 0.9914848
00000000: 844c 803f 68e9 7c3f 4741 7d3f 5d00 6a3f
00000010: dc84 6a3f 9f34 743f 025e 7a3f 6aa7 733f
00000020: a926 7b3f a4c3 683f 052a 6a3f cf62 823f
00000030: db84 7c3f 2639 763f 4c7e 6f3f db73 833f
00000040: 0bfc 733f a877 753f b0f3 733f c6f7 843f
00000050: 18d7 833f d722 733f 8ed3 6e3f 3ad7 803f
00000060: 46c9 803f 4c96 843f 0aa0 813f 327e 793f
00000070: e540 6f3f 936d 713f 5819 763f f3d1 7d3f

bn3.bias f4 [32]
0.071514264 0.05488341 0.08261614 -0.0889177 -0.080767296 0.051488593 0.062322743 0.026458083
-0.020347638 -0.08405019 -0.090593256 0.09041375 0.067228444 -0.02883752 -0.05032283 0.09541607
-0.048679583 0.053547673 -0.05011462 0.08421525 0.085710876 0.06115968 -0.07074857 0.06901901
0.06871982 0.09811444 0.077305466 0.049963698 -0.07272331 -0.065385126 0.047628623 0.042157516
00000000: 1276 923d 6dcd 603d a732 a93d 7c1a b6bd
00000010: 5369 a5bd b4e5 523d 2246 7f3d 9fbe d83c
00000020: 17b0 a6bc 8222 acbd f588 b9bd d82a b93d
00000030: 11af 893d aa3c ecbc 501f 4ebd 8069 c33d
00000040: 3e64 47bd ce54 5b3d fd44 4dbd 0c79 ac3d
00000050: 2f89 af3d 9382 7a3d a0e4 90bd d759 8d3d
00000060: fabc 8c3d 39f0 c83d 5452 9e3d bca6 4c3d
00000070: f5ef 94bd a3e8 85bd 3b16 433d 5cad 2c3d

bn3.running_mean f4 [32]
-0.56964904 -0.27376008 -0.33871028 0.19403264 0.16848174 0.009825249 -0.1286994 0.02723513
0.10103404 -0.18762906 0.10068125 0.14455462 -0.08407578 0.24066624 0.15059832 0.30056456
0.039800897 -0.23549713 0.15135597 -0.5541606 -0.6107469 0.034875385 0.12867205 0.021112658
-0.022105964 -0.16141252 -0.059423305 -0.23490483 0.5622187 -0.105463475 -0.02034365 -0.34521845
00000000: 85d4 11bf 482a 8cbe 6f6b adbe 7eb0 463e
00000010: 7a86 2c3e 15fa 203c c7c9 03be 351c df3c
00000020: efea ce3d d521 40be f931 ce3d 2006 143e
00000030: ec2f acbd 3671 763e 7236 1a3e 99e3 993e
00000040: 4406 233d 2926 71be 0ffd 1a3e 78dd 0dbf
00000050: e959 1cbf 7ed9 0e3d 9bc2 033e 74f4 ac3c
00000060: 9117 b5bc 5349 25be da65 73bd e48a 70be
00000070: 91ed 0f3f 3cfd d7bd baa7 a6bc 79c0 b0be

bn3.running_var f4 [32]
0.5000691 0.7563767 0.45922303 0.77149576 0.46831554 0.6153871 0.7083421 0.39318514
0.52328205 0.5247083 0.41728058 0.5626552 0.44428256 0.44184625 0.35656357 0.35947093
0.46264085 0.9386911 0.7775958 0.71431583 0.5572061 0.47027102 0.59308714 0.4936758
0.64585036 0.6102688 0.55838776 0.42985463 0.5495026 0.3585388 0.42490247 0.8769739
00000000: 8704 003f e7a1 413f 481f eb3e bf80 453f
00000010: 0ec7 ef3e 028a 1d3f e855 353f 904f c93e
00000020: d0f5 053f 4853 063f cda5 d53e 2c0a 103f
00000030: 0179 e33e ac39 e23e 808f b63e 930c b83e
00000040: 43df ec3e 0f4e 703f 8510 473f 67dd 363f
00000050: 0fa5 0e3f 5dc7 f03e 8fd4 173f 13c3 fc3e
00000060: 7356 253f 933a 1c3f 80f2 0e3f e815 dc3e
00000070: 34ac 0c3f 6692 b73e d18c d93e 5d81 603f

fc4.weight f4 [3, 32]
-0.13384053 -0.050003152 -0.057153217 0.04391151 -0.036436148 0.13114011 -0.037776962 -0.037093766
-0.027645187 -0.18037316 0.04498108 -0.09378255 -0.12916553 0.006006673 -0.13496368 -0.027538694
0.09771913 -0.104961574 -0.08900952 0.040273834 -0.201095 0.030968282 -0.018043363 -0.15913294
-0.06575056 0.032576177 -0.10799022 -0.042382427 0.0013189815 0.07799229 -0.02207482 -0.011100566
0.11520175 0.1487485 0.1252163 -0.060594473 -0.0631232 0.17380182 0.17618789 0.0059046247
0.10997487 -0.056274686 -0.06445179 0.08900241 0.098054856 0.035420027 -0.07566347 0.02112275
0.09798385 0.09075113 -0.086919725 0.16449259 -0.023723232 0.117581755 -0.039340194 0.06317592
0.11539708 0.12343346 0.16544236 0.1496369 -0.02018307 0.014653823 0.05444114 0.13908997
0.016405689 -0.06361766 0.09834532 0.06199203 -0.059914455 -0.08433216 0.056296322 -0.17530416
0.13212033 0.016435253 -0.14083578 0.019215932 -0.04627708 -0.12496133 -0.082882985 -0.12216158
-0.05648266 -0.1767704 -0.215598 -0.036548056 -0.13614397 -0.081888236 -0.024537584 0.0022267925
-0.032190487 -0.06920409 0.07394901 -0.091312654 -0.21955676 -0.050069623 -0.065490395 -0.14279667
00000000: 7e0d 09be 1bd0 4cbd 7e19 6abd 8edc 333d
00000010: 123e 15bd 9849 063e 04bc 1abd a2ef 17bd
00000020: 2978 e2bc beb3 38be 153e 383d 1111 c0bd
00000030: f843 04be a0d3 c43b eb33 0abe d498 e1bc
00000040: f820 c83d 18f6 d6bd a04a b6bd 2df6 243d
00000050: d9eb 4dbe 32b1 fd3c adcf 93bc bff3 22be
00000060: 3ba8 86bd 996e 053d fa29 ddbd 3299 2dbd
00000070: ade1 ac3a 6cba 9f3d 41d6 b4bc 26df 35bc
00000080: e5ee eb3d 8751 183e b438 003e e931 78bd
00000090: bc46 81bd 1bf9 313e 996a 343e 957b c13b
000000a0: 813a e13d 4980 66bd 4dff 83bd e546 b63d
000000b0: fcd0 c83d 9714 113d 73f5 9abd 9e09 ad3c
000000c0: c2ab c83d badb b93d f802 b2bd bf70 283e
000000d0: 3957 c2bc b4ce f03d 2f23 21bd 6062 813d
000000e0: 4e55 ec3d afca fc3d b969 293e 6a3a 193e
000000f0: f756 a5bc 9716 703c acfd 5e3d 9a6d 0e3e
00000100: 3965 863c fa49 82bd 4569 c93d 5beb 7d3d
00000110: dc68 75bd 57b6 acbd f996 663d ef82 33be
00000120: 8d4a 073e 39a3 863c 4137 10be bb6a 9d3c
00000130: 098d 3dbd baeb ffbd 8ebe a9bd da2f fabd
00000140: 5d5a 67bd 4d03 35be b9c5 5cbe 6ab3 15bd
00000150: 5369 0bbe 05b5 a7bd 0b03 c9bc 61ef 113b
00000160: 2cda 03bd e0ba 8dbd 9472 973d 2102 bbbd
00000170: 7dd3 60be ce15 4dbd d41f 86bd 4a39 12be

fc4.bias f4 [3]
-0.25218287 -0.035277486 -0.09361067
00000000: 1d1e 81be 207f 10bd f3b6 bfbd
